…
    "After the implementation and training, I got 3.7% test accuracy. I believe the model can get better results by reducing the overfitting by L2 regularization."
   ]
  },
  {
   "cell_type": "code",
   "execution_count": 60,
   "metadata": {},
   "outputs": [
    {
     "name": "stdout",
     "output_type": "stream",
     "text": [
      "_________________________________________________________________\n",
      "Layer (type)                 Output Shape              Param #   \n",
      "=================================================================\n",
      "conv2d_25 (Conv2D)           (None, 224, 224, 16)      208       \n",
      "_________________________________________________________________\n",
      "max_pooling2d_25 (MaxPooling (None, 224, 224, 16)      0         \n",
      "_________________________________________________________________\n",
      "batch_normalization_21 (Batc (None, 224, 224, 16)      64        \n",
      "_________________________________________________________________\n",
      "conv2d_26 (Conv2D)           (None, 224, 224, 32)      8224      \n",
      "_________________________________________________________________\n",
      "max_pooling2d_26 (MaxPooling (None, 224, 224, 32)      0         \n",
      "_________________________________________________________________\n",
      "dropout_14 (Dropout)         (None, 224, 224, 32)      0         \n",
      "_________________________________________________________________\n",
      "batch_normalization_22 (Batc (None, 224, 224, 32)      128       \n",
      "_________________________________________________________________\n",
      "conv2d_27 (Conv2D)           (None, 224, 224, 64)      131136    \n",
      "_________________________________________________________________\n",
      "max_pooling2d_27 (MaxPooling (None, 224, 224, 64)      0         \n",
      "_________________________________________________________________\n",
      "dropout_15 (Dropout)         (None, 224, 224, 64)      0         \n",
      "_________________________________________________________________\n",
      "batch_normalization_23 (Batc (None, 224, 224, 64)      256       \n",
      "_________________________________________________________________\n",
      "global_average_pooling2d_6 ( (None, 64)                0         \n",
      "_________________________________________________________________\n",
      "dense_6 (Dense)              (None, 133)               8645      \n",
      "_________________________________________________________________\n",
      "activation_54 (Activation)   (None, 133)               0         \n",
      "=================================================================\n",
      "Total params: 148,661\n",
      "Trainable params: 148,437\n",
      "Non-trainable params: 224\n",
      "_________________________________________________________________\n"
     ]
    }
   ],
   "source": [
    "from keras.layers import Conv2D, MaxPooling2D, GlobalAveragePooling2D\n",
    "from keras.layers import Dropout, Flatten, Dense, BatchNormalization, Activation\n",
…
